…
WARNING:tensorflow:From C:\Users\agung\AppData\Local\Programs\Python\Python310\lib\site-packages\keras\src\layers\normalization\layer_normalization.py:328: The name tf.nn.fused_batch_norm is deprecated. Please use tf.compat.v1.nn.fused_batch_norm instead.

Model: "model"
__________________________________________________________________________________________________
 Layer (type)                Output Shape                 Param #   Connected to
==================================================================================================
 input_1 (InputLayer)        [(None, 30, 1662)]           0         []

 bidirectional (Bidirection  (None, 30, 256)              1833984   ['input_1[0][0]']
 al)

 layer_normalization (Layer  (None, 30, 256)              512       ['bidirectional[0][0]']
 Normalization)

 dropout (Dropout)           (None, 30, 256)              0         ['layer_normalization[0][0]']

 bidirectional_1 (Bidirecti  (None, 30, 256)              394240    ['dropout[0][0]']
 onal)

 layer_normalization_1 (Lay  (None, 30, 256)              512       ['bidirectional_1[0][0]']
 erNormalization)

 dropout_1 (Dropout)         (None, 30, 256)              0         ['layer_normalization_1[0][0]'
                                                                    ]

 attention (Attention)       (None, 30, 256)              0         ['dropout_1[0][0]',
                                                                     'dropout_1[0][0]']

 attention_1 (Attention)     (None, 30, 256)              0         ['dropout_1[0][0]',
                                                                     'dropout_1[0][0]']

 concatenate (Concatenate)   (None, 30, 512)              0         ['attention[0][0]',
                                                                     'attention_1[0][0]']

 global_average_pooling1d (  (None, 512)                  0         ['concatenate[0][0]']
 GlobalAveragePooling1D)

 dense (Dense)               (None, 128)                  65664     ['global_average_pooling1d[0][
                                                                    0]']

 layer_normalization_2 (Lay  (None, 128)                  256       ['dense[0][0]']
 erNormalization)

 dropout_2 (Dropout)         (None, 128)                  0         ['layer_normalization_2[0][0]'
                                                                    ]

 dense_1 (Dense)             (None, 64)                   8256      ['dropout_2[0][0]']

 dropout_3 (Dropout)         (None, 64)                   0         ['dense_1[0][0]']

 dense_2 (Dense)             (None, 10)                   650       ['dropout_3[0][0]']

==================================================================================================
Total params: 2304074 (8.79 MB)
Trainable params: 2304074 (8.79 MB)
Non-trainable params: 0 (0.00 Byte)
__________________________________________________________________________________________________

🚀 Training model...
Epoch 1/300
WARNING:tensorflow:From C:\Users\agung\AppData\Local\Programs\Python\Python310\lib\site-packages\keras\src\utils\tf_utils.py:492: The name tf.ragged.RaggedTensorValue is deprecated. Please use tf.compat.v1.ragged.RaggedTensorValue instead.
…
